src/train/trained_models/vanilla_n40.pt (torch_old, 5953 bytes, 2 tensors)

weight f4 [2, 40]
00000000: 0069 f43c 1b72 213e 5d16 333d 0b47 a43e
00000010: d265 003e ba4f 753e 639a e2bd a602 213d
00000020: f24c b63e 1557 863e e0d5 be3c 9f0e e6bd
00000030: 3229 50be 3db6 ab3d 201d 85be 9474 4c3c
00000040: 351f d2be f885 923c 4313 c4be 2d05 9b3e
00000050: 3d16 923b 7b08 1fbf cfe2 7d3e 72c3 aebe
00000060: 3445 073d 95c0 ed3d d733 14bf 5954 693f
00000070: de14 91be 6a6f ecbe 04fd cd3d b31c 9a3e
00000080: 9a7f cbbe 6f51 b7be 129c ae3e c758 1bbd
00000090: 51d8 f8be eaa9 84be 7707 083f f1c7 183f
000000a0: 9b97 33bc 5230 bd3d a9fa 1fbe 2f4a 28be
000000b0: 8e91 28bd 7133 91bd 2d40 a93c 6d65 7c3c
000000c0: e3a5 7cbe 0506 59be 4284 b1bd a671 393d
000000d0: 0092 b83c 0aff 4d3d b1c4 d13d 58e1 7bbe
000000e0: 7c7d 883e 1b6b ccbd 2b59 6a3e 8482 58be
000000f0: f384 e53c 2be6 143f d39e 96be 9009 ef3e
00000100: 386e 7e3d 1318 58be 6f9a f13e 7faf 53bf
00000110: 32c8 fe3d 331c d83e 5da5 00be 71a7 ddbe
00000120: 8032 3f3e ffc8 ea3e b7cd dfbe 1d31 b9bc
00000130: 22fa 893e 1832 553e 4083 debe f96d d5be
0.029835224 0.15766184 0.0437225 0.3208545 0.12538841 0.23956195 -0.11064603 0.039309166
0.3560558 0.26238313 0.023295343 -0.112332575 -0.20328215 0.083843686 -0.25998783 0.012478966
-0.41039434 0.017886147 -0.38295946 0.30277386 0.0044582174 -0.62122315 0.24793552 -0.34133488
0.03302498 0.11608998 -0.578916 0.9114433 -0.28336233 -0.46178752 0.100580245 0.3010002
-0.3974579 -0.35804316 0.34103447 -0.03792646 -0.48602536 -0.25910884 0.5313639 0.59680086
-0.0109614385 0.09237732 -0.15622963 -0.16434549 -0.041154437 -0.0708989 0.020660484 0.015405041
-0.24672656 -0.21193703 -0.08667804 0.0452744 0.022530556 0.050292052 0.10242594 -0.2459768
0.26658237 -0.09981366 0.22885577 -0.21143538 0.028017497 0.5816371 -0.29418048 0.46686983
0.06211683 -0.21102934 0.47188136 -0.8268966 0.12440528 0.42209014 -0.12563081 -0.4329181
0.18671608 0.45856473 -0.43711635 -0.022606427 0.2694865 0.2081989 -0.4345951 -0.41685465

bias f4 [2]
00000000: d9ad bd3f 7872 c1bf
1.4818679 -1.5113058
